…
[2023-01-04 13:31:47,570: INFO: step_04_train_evaluate_model]: Data in the DataLoader
[2023-01-04 13:31:47,572: INFO: step_04_train_evaluate_model]: {'token_id': tensor([[5, 5, 5,  ..., 0, 0, 0],
        [5, 5, 5,  ..., 0, 0, 0],
        [5, 5, 5,  ..., 0, 0, 0],
        ...,
        [5, 5, 5,  ..., 0, 0, 0],
        [5, 5, 5,  ..., 0, 0, 0],
        [5, 5, 5,  ..., 0, 0, 0]], dtype=torch.int32), 'labels': tensor([0., 1., 0., 0., 1., 1., 1., 1., 1., 1., 1., 1., 0., 1., 0., 0., 1., 0.,
        0., 1., 0., 1., 0., 0., 1., 0., 0., 0., 0., 0., 1., 0.])}
[2023-01-04 13:31:49,042: INFO: step_04_train_evaluate_model]: Model: TransformerModel(
  (embedding): Embedding(256, 256)
  (positional_encoding): PositionalEncoding(
    (dropout): Dropout(p=0.1, inplace=False)
  )
  (encoder): TransformerEncoder(
    (layers): ModuleList(
      (0): TransformerEncoderLayer(
        (self_attn): MultiheadAttention(
          (out_proj): NonDynamicallyQuantizableLinear(in_features=256, out_features=256, bias=True)
        )
        (linear1): Linear(in_features=256, out_features=128, bias=True)
        (dropout): Dropout(p=0.01, inplace=False)
        (linear2): Linear(in_features=128, out_features=256, bias=True)
        (norm1): LayerNorm((256,), eps=1e-05, elementwise_affine=True)
        (norm2): LayerNorm((256,), eps=1e-05, elementwise_affine=True)
        (dropout1): Dropout(p=0.01, inplace=False)
        (dropout2): Dropout(p=0.01, inplace=False)
      )
      (1): TransformerEncoderLayer(
        (self_attn): MultiheadAttention(
          (out_proj): NonDynamicallyQuantizableLinear(in_features=256, out_features=256, bias=True)
        )
        (linear1): Linear(in_features=256, out_features=128, bias=True)
        (dropout): Dropout(p=0.01, inplace=False)
        (linear2): Linear(in_features=128, out_features=256, bias=True)
        (norm1): LayerNorm((256,), eps=1e-05, elementwise_affine=True)
        (norm2): LayerNorm((256,), eps=1e-05, elementwise_affine=True)
        (dropout1): Dropout(p=0.01, inplace=False)
        (dropout2): Dropout(p=0.01, inplace=False)
      )
      (2): TransformerEncoderLayer(
        (self_attn): MultiheadAttention(
          (out_proj): NonDynamicallyQuantizableLinear(in_features=256, out_features=256, bias=True)
        )
        (linear1): Linear(in_features=256, out_features=128, bias=True)
        (dropout): Dropout(p=0.01, inplace=False)
        (linear2): Linear(in_features=128, out_features=256, bias=True)
        (norm1): LayerNorm((256,), eps=1e-05, elementwise_affine=True)
        (norm2): LayerNorm((256,), eps=1e-05, elementwise_affine=True)
        (dropout1): Dropout(p=0.01, inplace=False)
        (dropout2): Dropout(p=0.01, inplace=False)
      )
      (3): TransformerEncoderLayer(
        (self_attn): MultiheadAttention(
          (out_proj): NonDynamicallyQuantizableLinear(in_features=256, out_features=256, bias=True)
        )
        (linear1): Linear(in_features=256, out_features=128, bias=True)
        (dropout): Dropout(p=0.01, inplace=False)
        (linear2): Linear(in_features=128, out_features=256, bias=True)
        (norm1): LayerNorm((256,), eps=1e-05, elementwise_affine=True)
        (norm2): LayerNorm((256,), eps=1e-05, elementwise_affine=True)
        (dropout1): Dropout(p=0.01, inplace=False)
        (dropout2): Dropout(p=0.01, inplace=False)
      )
      (4): TransformerEncoderLayer(
        (self_attn): MultiheadAttention(
          (out_proj): NonDynamicallyQuantizableLinear(in_features=256, out_features=256, bias=True)
        )
        (linear1): Linear(in_features=256, out_features=128, bias=True)
        (dropout): Dropout(p=0.01, inplace=False)
        (linear2): Linear(in_features=128, out_features=256, bias=True)
        (norm1): LayerNorm((256,), eps=1e-05, elementwise_affine=True)
        (norm2): LayerNorm((256,), eps=1e-05, elementwise_affine=True)
        (dropout1): Dropout(p=0.01, inplace=False)
        (dropout2): Dropout(p=0.01, inplace=False)
      )
      (5): TransformerEncoderLayer(
        (self_attn): MultiheadAttention(
          (out_proj): NonDynamicallyQuantizableLinear(in_features=256, out_features=256, bias=True)
        )
        (linear1): Linear(in_features=256, out_features=128, bias=True)
        (dropout): Dropout(p=0.01, inplace=False)
        (linear2): Linear(in_features=128, out_features=256, bias=True)
        (norm1): LayerNorm((256,), eps=1e-05, elementwise_affine=True)
        (norm2): LayerNorm((256,), eps=1e-05, elementwise_affine=True)
        (dropout1): Dropout(p=0.01, inplace=False)
        (dropout2): Dropout(p=0.01, inplace=False)
      )
    )
  )
  (classifier): Linear(in_features=256, out_features=2, bias=True)
)
[2023-01-04 13:51:22,424: INFO: step_04_train_evaluate_model]: Epoch: 1, Train_loss: 0.3517564471293829, Train_acc: 85.0360157222471, Val_loss: 0.39805198902106464, Val_acc: 82.23767383059418
[2023-01-04 14:10:55,171: INFO: step_04_train_evaluate_model]: Epoch: 2, Train_loss: 0.2990305773274989, Train_acc: 87.19546859829322, Val_loss: 0.34998580780440725, Val_acc: 84.43426042983565
…
